models/mnist.ckpt (torch, 146767 bytes, 8 tensors)

weight f4 [6, 3, 5, 5]
000000 fc a6 1e be 27 5a 0c be 6f ce 25 3d 03 04 85 3d
       -0.15493387 -0.13706265 0.040480074 0.06494906
000010 57 6a b1 3d b8 d8 d7 bd 43 b0 c2 3b e2 a5 d1 3d
       0.08662861 -0.10539383 0.005941422 0.10236718
000020 c7 cf 9e bd 13 1e bd 3d 6c 9d ad bc 30 17 2d 3e
       -0.07754474 0.09234252 -0.021193229 0.16903377
000030 71 2e 0b 3e 1f 70 16 3e eb 6d ba bc 33 69 25 bc
       0.13591935 0.14691208 -0.022757491 -0.010095882
000040 82 be 72 3c 6c ce 1a be 6f d0 64 be 4b f4 a9 bd
       0.014815928 -0.15117806 -0.22345136 -0.08298548
000050 be eb cb 3d c0 97 46 be cd f2 73 be 02 90 bd bd
       0.09957074 -0.19393826 -0.2382309 -0.09255983
000060 07 75 ed bc dd 1a 5c be 25 12 f8 bc 9a 57 a3 bd
       -0.028986467 -0.21494623 -0.03028209 -0.07975693
000070 5f be 92 3d 3b 6b a2 3d 3b 73 26 bd aa 41 62 bd
       0.07165217 0.07930609 -0.040637236 -0.055238403
000080 70 93 7e bd 85 69 2b 3d 33 2c b3 bd 40 b8 ad 3d
       -0.062152326 0.04184868 -0.08748665 0.084824085
000090 ec 83 ad 3d f3 23 b5 3d a7 8f 4a bc 84 a5 41 bd
       0.08472428 0.088447474 -0.012363351 -0.04727699
0000a0 89 04 97 3d d8 f4 96 bd 66 aa e3 bd 16 4e 2c be
       0.07373912 -0.07370919 -0.11116485 -0.16826662
0000b0 40 6f 5b bd 10 a7 3b 3d 07 95 9b bd 1c ef 45 bd
       -0.053572893 0.04581362 -0.07596784 -0.048323736
0000c0 f3 2f 96 bd a3 ba 32 be b4 a5 2b be 4f e6 a4 3b
       -0.07333364 -0.17454009 -0.1676243 0.0050323377
0000d0 d3 2e 85 bd 9c 91 86 3b bf c3 b2 3d 72 b4 c9 bd
       -0.06503072 0.0041067135 0.08728742 -0.0984887
0000e0 ae b4 dd bd 8a 62 d5 3d 60 c4 d6 3c cf a3 91 bc
       -0.108254775 0.104191855 0.026216686 -0.017778305
0000f0 a2 2d af 3d 14 e2 ec bb c7 8d 54 3d 7d b9 2b 3e
       0.08553626 -0.007229099 0.051893022 0.16769977
000100 61 a6 eb 3c 02 e3 9a 3c e3 4c 84 3d 44 ff 02 bd
       0.02876586 0.018907074 0.064599775 -0.03198172
000110 6a 54 c6 bc 01 a7 27 be 53 3d cd 3c 4e dc 12 bc
       -0.024210174 -0.163723 0.025053656 -0.008963658
000120 6f b3 93 bd 3e 36 7b 3d 51 3c ec 3c 6b a2 33 bd
       -0.072119586 0.061331026 0.028837355 -0.043856066
000130 bd cc 8e bc 9c d3 6a bd ba 00 3c bd 01 e8 9f 3d
       -0.017431611 -0.057330713 -0.04589913 0.07807923
000140 96 b5 04 bd a6 18 44 be 8c 77 8e be 2a 31 44 bd
       -0.032399736 -0.19150028 -0.27825582 -0.04789845
000150 3c fb 0f be c6 3d 58 bd 43 e7 ef 3d 86 e6 b6 bd
       -0.14060682 -0.052793287 0.117140315 -0.089306876
000160 79 ee a0 bd aa 28 a1 bd 82 5d c3 3d 23 75 fd 3c
       -0.07857985 -0.07869084 0.095393196 0.030939644
000170 18 a8 3a 3c 9d e8 77 bd 0c e3 3d 3d 9b 47 e8 3c
       0.011392616 -0.06052457 0.046359107 0.028354457
000180 ec bb f5 3d cd 57 4e 3d 13 a2 b6 3c 52 ef 9b 3d
       0.11998734 0.050376702 0.02229408 0.07614006
000190 d2 2f 4f bd d6 c7 d2 bd d1 9b ca bd 2e e7 b1 bd
       -0.050582714 -0.10292022 -0.09893001 -0.08686672
0001a0 e7 05 4b 3d 49 07 9f 3d c5 4f 39 be 85 6f 6d be
       0.049566176 0.077650614 -0.18096836 -0.23187073
0001b0 34 c9 c2 bc 9b e3 b5 bb dd 38 e8 3d 00 b7 c1 3d
       -0.023777582 -0.0055508143 0.11338971 0.094587326
0001c0 07 3f ab bc 3c be 0e bd a5 df d5 bd 7b e9 10 3e
       -0.020904077 -0.03484939 -0.104430474 0.14151566
0001d0 12 7f 6a bd 4e fd 8f 3c 51 98 9b bd 4f 49 e8 bd
       -0.05725009 0.01757684 -0.075974114 -0.113421075
0001e0 97 78 17 3e 43 07 81 3e e6 ba 0f 3e f7 15 fd 3c
       0.14792095 0.25200853 0.1403614 0.030894263
0001f0 3b ad a1 3d 64 16 12 3e d4 76 c1 bc 7a d2 d4 bd
       0.07894369 0.14266354 -0.023616232 -0.10391708
000200 a7 a0 c0 3d d8 24 fd 3d 21 23 2d bc 6a ce f0 bd
       0.09405642 0.12360543 -0.010567457 -0.1175812
000210 bd 41 7a be 03 51 10 bc 97 83 30 bd d2 37 d7 3d
       -0.2443914 -0.008808377 -0.043094244 0.10508694
000220 29 0a ee bb 79 17 93 3c b3 57 8f bb 2f df 4b bd
       -0.007264395 0.017955529 -0.0043744682 -0.04977339
000230 2b f8 c0 3d 85 fe e2 3d e2 7e 13 bd e7 43 c9 bd
       0.09422334 0.11083702 -0.036009677 -0.098274045
000240 69 44 ef bb 20 d3 a1 3d 50 0a 47 3e 21 1c 31 3e
       -0.0073018563 0.07901597 0.19437528 0.17295887
000250 f0 0a b6 3d 60 fc 1a 3d ad de 2c be 0a 38 98 3c
       0.08888805 0.03783834 -0.16881819 0.018581409
000260 e5 1e 37 3e f5 74 a8 bc a6 c1 aa 3d 59 8f d7 bc
       0.17882879 -0.020563582 0.08337717 -0.02631347
000270 20 79 6a bc c1 0c 0d bd b1 6e 10 3e c2 dd 80 3e
       -0.014311105 -0.03443599 0.14104725 0.25169188
000280 6f be b3 3d db b9 cd 3d b0 92 c0 bd 9d c4 ed bd
       0.08776557 0.10045215 -0.094029784 -0.11609767
000290 d5 cc 2d 3e b0 8c 99 bc 5d a9 db bd 99 89 5f be
       0.16972668 -0.018743843 -0.10725663 -0.21829833
0002a0 fe e1 50 be 80 91 00 be c7 eb 01 bd ff b2 42 be
       -0.20398709 -0.12555504 -0.031718995 -0.19013594
0002b0 e9 b4 ae be 36 4f e0 bd 0e be f6 bd d6 ba 1a be
       -0.34122398 -0.10952608 -0.12047969 -0.15110335
0002c0 92 1a 20 3e 56 35 43 3e 89 d8 27 3e 0c 45 52 3e
       0.15635136 0.19063315 0.16391195 0.20534152
0002d0 41 4b 8d 3d 5f 90 2b 3d a3 4d 26 bc 1c 8d 9a bc
       0.06899119 0.04188573 -0.010150346 -0.018866114
0002e0 80 96 05 3e 43 f3 14 3e 9d b6 51 3e d6 15 bb bc
       0.13045692 0.14545922 0.20479818 -0.02283756
0002f0 88 73 a9 3c 85 e3 0e bb 80 85 b9 bb 82 3d 4a be
       0.020684972 -0.0021803093 -0.0056616664 -0.19750026
000300 d5 a8 ee bd 9c 16 8f be 60 2d 87 be b1 51 6c bd
       -0.11653296 -0.27946937 -0.26401806 -0.057695094
000310 c1 b9 90 bd bc 57 80 be 00 3e 7f be 3e cb 2e be
       -0.0706668 -0.25066936 -0.24925995 -0.17069718
000320 51 63 70 bd 9b 8e d6 3c 49 46 14 3e 28 b3 af 3d
       -0.058688466 0.026191046 0.14479937 0.08579093
000330 ba 49 1b 3e 8c 66 3e 3d bc b2 c7 3d 2f 1b 33 3e
       0.15164843 0.046484515 0.09750888 0.17490838
000340 94 f8 a3 3d fe 61 2b 3e 1b 2e 8f 3d 54 78 7c 3d
       0.08006397 0.167366 0.06991216 0.06163819
000350 45 17 2f 3d 12 17 83 3d 19 ac 3f bc b1 a0 b8 3d
       0.0427468 0.06400885 -0.011698746 0.090150245
000360 b0 7c a7 bd 21 1a 0d be 6f 68 32 be 6f 81 73 be
       -0.08178079 -0.13779499 -0.17422651 -0.23779844
000370 ac aa dd bc e0 bf ba bd 9e 4b 65 be 53 d7 86 be
       -0.027058922 -0.091186285 -0.22392127 -0.26336154
000380 4b 6c 46 be 47 3e 12 be b6 7b d3 bc f9 1e 5e 3d
       -0.19377248 -0.1428157 -0.025815826 0.054228757
000390 a8 e8 93 bd be f8 85 bd 3b 7e 7f bd 65 42 46 bc
       -0.0722211 -0.065415844 -0.062376242 -0.012100791
0003a0 d7 ea 3e ba e2 2a 0b be 0f 7f 2e be b9 84 3a 3e
       -0.00072829187 -0.13590577 -0.17040657 0.18214692
0003b0 5c dd 5c 3d 02 6d c8 bd 71 91 97 bd 3b 5f 0c be
       0.053922042 -0.097864166 -0.074007876 -0.13708203
0003c0 62 d3 ef 3c 90 a6 c5 bc d3 45 ef bd 09 11 1b be
       0.0292756 -0.024127275 -0.1168324 -0.15143217
0003d0 e1 aa cd bd 83 13 18 3e 9b 3d af 3a 12 d7 56 3d
       -0.10042358 0.14851193 0.00133698 0.0524512
0003e0 cc 2c 5a bd 3b a4 99 bd 88 5d 93 bd 5e 1c 6f 3d
       -0.053265378 -0.075020276 -0.07195574 0.058376662
0003f0 b0 81 be 3d 10 f2 bf 3d 63 1a 8b 3d d2 e2 a0 bd
       0.0930208 0.09372342 0.06792142 -0.078557625

bias f4 [6]
000000 18 a8 32 3d 44 4c 68 be 12 a9 d9 bd 14 5c 34 3e
       0.043617338 -0.22685343 -0.10627951 0.1761325
000010 53 1b 60 3e c5 f2 07 be
       0.21885423 -0.13276203

weight f4 [16, 6, 5, 5]
000000 d5 80 b3 3c 32 aa 8d 3d a4 ef 81 bd 12 69 f8 bc
       0.021912018 0.06917228 -0.06344536 -0.030323539
000010 e5 75 07 3d 5d c7 36 be 09 10 65 3d 6a 73 0b bd
       0.033071417 -0.17849489 0.055923495 -0.034045614
000020 9f 4d 3e bd 25 19 73 3d e6 ca d1 bd 67 0e 86 bd
       -0.046460744 0.05935015 -0.10243778 -0.06545716
000030 f2 5a 8f 3d 16 12 c9 3d 4a 0e a4 bd 30 c0 0d 3e
       0.06999768 0.09817903 -0.08010538 0.13842845
000040 af 0f 59 bb 79 c8 87 3d 8a 29 00 3e e3 ae f3 3d
       -0.003312092 0.06630034 0.12515846 0.11898591
000050 c2 3f 3c bd 62 c7 91 bc df 7a e2 bd 7a 11 59 3d
       -0.04595924 -0.017795268 -0.11058592 0.052995183
000060 66 0e 01 bd 27 e5 c9 3d 2a 72 7f 3a 81 2c 60 be
       -0.031507872 0.098581605 0.000974449 -0.21891977
000070 6f 44 f7 bd fa 77 8a be 6e b0 ec 3d 1d 51 17 3e
       -0.120735995 -0.2704466 0.11557089 0.14777036
000080 fa 40 07 bc 3f 9a 08 bd 83 e0 06 bd 4a 32 6a 3e
       -0.008255238 -0.033350226 -0.032928955 0.22870746
000090 d6 cf 7e 3e 40 71 e1 3d 85 0e 6c bd d9 f9 1c 3e
       0.2488397 0.11007929 -0.057631034 0.15329684
0000a0 1c 55 b2 3d 1c 3f 91 3c dc d0 97 3d ea 54 fe 3d
       0.087076396 0.017730288 0.07412884 0.1241854
0000b0 f3 aa c7 3d 5d 6c 6f 3d 21 2a a0 bd 23 6a 76 3c
       0.09749403 0.058452953 -0.078205355 0.015039953
0000c0 8f 5c f2 bd 82 05 86 be 10 c5 9e 39 6f 1b 59 3c
       -0.118340604 -0.26176077 0.0003028293 0.01325117
0000d0 60 39 a9 bd cd ac 98 bc 14 a7 c4 bb bb 35 fc bd
       -0.082628965 -0.018637085 -0.0060013626 -0.12314936
0000e0 cc 8d 7a bd af 1c 0c be da ca 85 3d f3 94 20 3d
       -0.061170384 -0.13682817 0.065328315 0.03920455
0000f0 11 4d 20 bd cf d7 3d bd fd 15 43 3e bb ac 0f 3d
       -0.039135996 -0.04634839 0.19051357 0.035076838
000100 de 4d eb bd 3f 42 ba 3d 82 fd 59 3d 16 e2 cb 3c
       -0.11489461 0.09094667 0.05322028 0.02488808
000110 a1 c7 14 3e aa c1 84 3e 77 ac d4 3d 1f f0 37 3e
       0.14529277 0.25929004 0.103844576 0.17962693
000120 56 f8 0c 3e 51 a1 3d 3e 1e c8 11 3e f5 13 db 3d
       0.13766608 0.18518569 0.14236495 0.10697166
000130 74 94 a2 3c a4 7b c7 3b 87 c8 32 3d 78 02 01 bd
       0.019846179 0.006087737 0.04364827 -0.031496495
000140 01 6a 9f 3c f8 69 9a bc e8 77 e7 bd d4 f8 8f bc
       0.019459726 -0.018849358 -0.11302167 -0.017574705
000150 a6 51 a9 bc ee a4 d4 bc ee 10 54 3e 33 01 ab 3d
       -0.020668816 -0.02595755 0.20709583 0.08349838
000160 7b 51 99 bc d2 8c 2b bd ad 9f 50 bd 49 77 dc 3d
       -0.01871561 -0.041882344 -0.05093353 0.10764939
000170 1d 18 17 3e a7 33 c3 bd bc 5e 27 3d d4 7b 0f 3e
       0.14755292 -0.09531336 0.04086183 0.1401208
000180 b3 b3 ac 3c c4 85 94 bd 43 e9 2d 3d 23 09 4d be
       0.021081781 -0.07252076 0.042458784 -0.20023017
000190 75 70 b8 bd db 48 3f bd ef 64 56 be ad 7f 7b 3b
       -0.090058245 -0.04670034 -0.2093694 0.0038375661
0001a0 1b 3a 67 3d f9 5e 44 be b4 44 f5 3d 12 a7 60 be
       0.056451898 -0.19176854 0.11975995 -0.21938732
0001b0 61 6c 65 3b b7 a3 21 3a ae 8f fa bd 01 c6 4c bd
       0.0035007226 0.0006166058 -0.12234436 -0.04999352
0001c0 a9 8d ca bc 1b d1 85 bd 0f 51 41 bc 58 10 fb bd
       -0.024725752 -0.06534024 -0.011799111 -0.12258977
0001d0 d5 34 22 be 1a 79 90 bd 25 7e f9 bd a5 de f2 bd
       -0.15840466 -0.07054348 -0.12182263 -0.11858872
0001e0 a7 02 1b be 2c d2 8d be 84 dc 16 be 4b e6 fe bd
       -0.1513773 -0.2769941 -0.14732558 -0.12446269
0001f0 c3 9e 28 be a8 c2 64 bc 7d 1d e1 3d 2b ef 05 be
       -0.16466813 -0.013962425 0.109919526 -0.13079517
000200 68 6e f5 bd 27 ad cb bd 2e 4b 0b be d7 46 d8 bd
       -0.11983949 -0.099451356 -0.13602898 -0.10560387
000210 d6 11 f8 bd 3b 69 9d 3d d8 34 ff bd 91 39 eb bd
       -0.12112777 0.07686087 -0.12461251 -0.11485589
000220 61 9f ab 3d e4 ae f0 3d fd 8e 6a 3d c0 f7 4a 3d
       0.083800085 0.11752108 0.05726527 0.04955268
000230 f3 70 27 bd c1 3a a0 3c f0 69 3c 3e ba 11 46 bd
       -0.0408792 0.019559266 0.18399787 -0.04835675
000240 2d 95 9b bc 17 74 61 bc 72 b4 67 3e 53 a5 05 3e
       -0.018992031 -0.013760588 0.22627428 0.13051347
000250 d8 67 c6 3d 87 21 9e bc 08 b5 40 3e 34 18 09 3b
       0.096877754 -0.019303096 0.18819058 0.0020918967
000260 73 57 18 bc 48 bb 5a bd ee e3 ca 3d 01 06 99 bd
       -0.009298193 -0.05340126 0.099067554 -0.07471848
000270 70 1f fb 3d 7f 0d bc 3c ed 84 42 3d 8b 46 1b bc
       0.122618556 0.022955654 0.04749005 -0.009477268
000280 4e f6 7d bc 8e 31 4e ba b8 3d 68 be 2d cf bc bd
       -0.015500618 -0.00078656606 -0.22679794 -0.09219203
000290 5f 12 a6 bd 3b 8f 09 3e 87 0a 0a be b9 8a c6 bd
       -0.08108973 0.13433544 -0.13480578 -0.09694428
0002a0 e6 72 88 bb 8a 09 c5 bd 47 e8 58 be 2e 77 22 be
       -0.0041640876 -0.0962096 -0.21182357 -0.15865776
0002b0 02 6f 39 bd 70 62 5a bd 27 61 d4 bd 63 30 be bc
       -0.04527188 -0.053316534 -0.10370093 -0.023216432
0002c0 55 cb 96 bd 9f 5a 88 bd 3e 6e 7f 3e 65 a7 02 3e
       -0.07363001 -0.066579096 0.24944398 0.12759168
0002d0 69 ae 39 3d 36 21 b1 3d a8 73 02 be 2f f3 9d 3c
       0.045332346 0.086489126 -0.12739432 0.019280998
0002e0 5e 8b 83 3d 72 dd 8a bd 1a 0d f9 bd d4 66 d0 bd
       0.064230666 -0.067805186 -0.12160702 -0.10175863
0002f0 f6 dc cb 3b 72 78 a3 bd 4c 92 0e be 68 b1 9e bd
       0.006221409 -0.079819575 -0.13922995 -0.07748681
000300 dd f6 a8 bd 3e 76 b7 bb 5c 20 16 be 05 e5 7f 3b
       -0.082502104 -0.0055988124 -0.14660782 0.0039046418
000310 e1 d0 97 3e 00 07 46 3d 4e 68 7a ba 19 3f e9 3d
       0.2965155 0.04834652 -0.0009552286 0.11388988
000320 a3 1d 8c 3e bc f8 fc 3d cd 07 e2 bd 93 31 45 be
       0.2736636 0.1235213 -0.11036644 -0.19257192
000330 7c df d3 bd bb e7 bf bd f3 ca 7a 3c 5e d9 59 be
       -0.10345361 -0.09370371 0.015307176 -0.21274325
000340 b1 b7 88 be 70 e8 79 3d 3c 53 77 3d d0 f8 10 3e
       -0.26702645 0.061012685 0.060382113 0.14157414
000350 9c cf ba be 56 38 0c be 0b 04 19 3e 5d 81 24 3e
       -0.36486518 -0.13693365 0.14942949 0.16064973
000360 1b 2c d3 bd 06 f0 ad be 26 af 08 3b 33 27 65 3c
       -0.10311147 -0.33972186 0.002085635 0.013986397
000370 1f a9 c7 bd 92 44 de be a1 d6 56 bd b0 ec 51 bc
       -0.09749054 -0.4341169 -0.05245078 -0.012812778
000380 58 0b 74 3e 27 77 db 3c 50 7a 24 be db 1a 4b be
       0.23832452 0.026790215 -0.16062284 -0.19834463
000390 b9 f6 5f be d5 f5 28 3e c5 93 a3 bb 05 89 38 3a
       -0.21871461 0.16500027 -0.0049919807 0.00070394605
0003a0 17 2e 76 be 66 43 e1 bd f6 09 1c 3e b5 6e 9b 3c
       -0.2404102 -0.10999183 0.15238175 0.018973688
0003b0 4a 4a eb bb b9 0d b6 be 15 47 2f 3d 7f cc 0e 3e
       -0.007180487 -0.35557345 0.0427924 0.13945197
0003c0 ad 6a 07 3e f2 04 28 be c3 f6 7f be 03 f2 97 3e
       0.13224287 -0.16408136 -0.24996476 0.29676828
0003d0 7b 64 04 3e b3 0b 97 3c 17 48 b4 be 21 ec c9 ba
       0.12928955 0.018438196 -0.3521125 -0.0015405455
0003e0 36 fd 82 3e 20 f7 12 bd 90 6d 5e 3d 39 54 ab 3c
       0.2558381 -0.035880208 0.054303706 0.020914184
0003f0 bd af 1c be 0f b0 9a bd 54 35 a1 bd 32 03 90 3d
       -0.15301414 -0.07553112 -0.078715 0.070318595

bias f4 [16]
000000 9b c1 9a be db b6 a9 be 7e 3b b5 be 33 9f 8f be
       -0.30225834 -0.3314732 -0.3539695 -0.28051147
000010 c7 a5 73 be 22 28 8e be f4 61 9b be 6b 95 9b be
       -0.23793708 -0.27764994 -0.3034817 -0.30387434
000020 1e 15 43 be d0 0b 0a bd 05 8a 94 be e0 05 90 be
       -0.19051024 -0.03370267 -0.2901155 -0.28129482
000030 fe 34 94 bd 47 6f 0f be a6 21 40 be 9e f6 97 be
       -0.0723667 -0.14007293 -0.18762836 -0.2968034

weight f4 [120, 256]
000000 f7 50 63 3b 31 b3 77 3d 94 3b d9 bc 3c 61 83 3d
       0.003468571 0.060473625 -0.026517667 0.0641503
000010 0c 3d d0 bc 99 bc 04 bd b6 12 32 be b5 ea 08 bd
       -0.025419734 -0.032406423 -0.1738995 -0.03342696
000020 c3 72 7a bc 13 ea 10 3d df ea f7 3d e3 25 dc 3a
       -0.01528615 0.03537948 0.12105345 0.0016795959
000030 90 07 c2 bd c0 33 ae bd 8a 21 06 bd e6 6c c9 bd
       -0.09474099 -0.08505964 -0.03274683 -0.09835224
000040 1a b2 91 3e 4a 0a 37 be b8 6e 71 be 0f 1a a6 bd
       0.28456193 -0.17875019 -0.23577392 -0.08110439
000050 b9 c6 25 3d f8 f8 af be e9 6d 96 3d c4 4e 1f 3e
       0.04047272 -0.34369636 0.073451824 0.1555739
000060 43 21 51 be c1 1b 69 bd 3f 14 dd 3d a2 93 a8 3c
       -0.20422845 -0.056911234 0.10794877 0.02057821
000070 eb 9b 72 bc 71 c2 c6 3c 65 f8 a2 bc 58 32 57 bd
       -0.014807682 0.024262639 -0.019893834 -0.052538246
000080 36 57 66 3e e3 f1 6c 3c 3a 0c 48 3d 91 35 07 3c
       0.22494206 0.014461967 0.048839785 0.008252517
000090 84 b3 cb 3d 77 4b f4 3d 70 35 54 be 7a 53 99 3c
       0.09946349 0.11928456 -0.2072351 0.018716563
0000a0 c7 ef 61 bd a3 99 d1 bd cc 1e 36 be 4b 35 1c bd
       -0.05516031 -0.10234382 -0.17785186 -0.03813676
0000b0 45 2d 75 be 3b 78 7f be 00 d8 2a 3d 70 a5 7a 3c
       -0.2394305 -0.24948208 0.0417099 0.015298232
0000c0 b4 b0 b3 3d 1d f6 a7 bd 7d 91 49 3e 6d e8 86 3d
       0.08773938 -0.08201239 0.19684406 0.065873004
0000d0 49 56 f7 bc 1f 5c 0b bc 3f 6e e3 3d cb 53 05 bc
       -0.030192511 -0.00850585 0.11105012 -0.008137654
0000e0 7f 40 c8 bd 64 25 23 3d 9a d6 ae 3d b8 0b 38 3e
       -0.09777927 0.03983058 0.08537026 0.1797322
0000f0 c9 3b 17 3c c6 08 e8 3d e6 97 12 3e 55 a1 b3 3d
       0.0092305625 0.113297984 0.14315757 0.08771006
000100 2d 43 8d bd 03 4c db b9 f6 74 8b bb e9 4a 82 bc
       -0.068975784 -0.00041827568 -0.004255886 -0.01590486
000110 cd 88 0e 3d b4 24 15 3b 15 f9 fa bd 56 83 cc bd
       0.034798432 0.0022757472 -0.1225454 -0.09985988
000120 68 ba 42 bd 20 d2 60 be 78 ad fa bd e9 41 31 bc
       -0.047541052 -0.21955156 -0.12240118 -0.010818937
000130 f9 0b 38 be d6 64 09 be e0 2d 37 3d 21 e5 e3 bb
       -0.17973317 -0.13417372 0.044721484 -0.0069548045
000140 99 35 0e bc 8b 53 a9 3d 87 1b a6 3d 57 85 fa bc
       -0.008679771 0.08267888 0.08110719 -0.03058116
000150 d0 17 6c 3d c9 98 32 3e 37 fd 35 be dd b6 c8 bc
       0.057639897 0.17441095 -0.17772375 -0.024501259
000160 db 06 7d 3b a2 c4 f4 bd d9 b9 a6 bd 2a 8e 7d 3c
       0.0038608823 -0.11951567 -0.081409164 0.015475789
000170 96 65 13 3c c0 70 19 be 44 8b c3 bd 0b ff 7e bc
       0.008996388 -0.14984417 -0.09548047 -0.015563737
000180 64 4c be 3c d7 69 4d be f6 fd 4f bd d5 73 50 3d
       0.023229785 -0.20059906 -0.050779305 0.050891716
000190 9e 68 4a 3d 6b bd 19 be 08 0f 18 3d a0 01 cb 3d
       0.049416177 -0.15013663 0.03712371 0.09912419
0001a0 98 a5 96 3d 3c f4 89 bc 9d 5d 02 bd 42 16 28 3b
       0.07355803 -0.016840093 -0.031827558 0.0025648032
0001b0 a9 6a 9b 3b 03 34 04 bd d3 bd d8 bd 55 e3 18 3d
       0.0047429395 -0.032276165 -0.10583081 0.037326176
0001c0 a6 3e 0d bc 68 37 3f be 55 31 4b be b2 36 65 bd
       -0.008620894 -0.1867348 -0.19843037 -0.055960365
0001d0 b2 d1 1b 3e 83 23 98 bd d1 7d b1 bc 62 2b 5c 3e
       0.15216711 -0.07428648 -0.02166644 0.21500924
0001e0 ef 29 2c 3d d6 68 8b 3d ce 77 6f 3d 35 a3 97 3d
       0.04203218 0.06807105 0.058463864 0.07404176
0001f0 33 9e d6 bd 60 4e a0 3c 13 b6 9e bd 23 12 3d 3e
       -0.10479393 0.019568622 -0.07749572 0.1846395
000200 78 71 7a 3d 1a d6 a0 bd 52 f7 65 bd e8 bb 03 3d
       0.06114337 -0.07853337 -0.056144066 0.032161623
000210 47 00 4f bb 3c c4 e5 bd d0 ae e3 bd 91 38 8c 3e
       -0.0031585859 -0.11219069 -0.11117327 0.27386907
000220 a6 3e 81 bc 90 eb a4 3c ee bd 32 bb 08 22 28 3d
       -0.015776943 0.020131856 -0.0027273851 0.04104808
000230 3e d0 d5 bc 62 93 48 bd 70 b1 c6 bd e6 e5 2f 3e
       -0.026100274 -0.04896868 -0.09701812 0.17177543
000240 2a 8b db 3d 68 75 28 be 27 3e 72 bd 2e 1f 07 be
       0.10719903 -0.16451037 -0.059141304 -0.13195488
000250 d8 f0 ee 3c fc 10 96 bd 41 30 6a bd 48 36 cf bd
       0.029167578 -0.07327458 -0.057174925 -0.10117775
000260 23 c4 08 3c 19 65 94 be c7 d9 03 be e6 8d cb bd
       0.008347544 -0.2898338 -0.12876044 -0.09939174
000270 55 f7 a9 be 32 75 d9 ba 28 f5 e4 bd 0c 7f ff bd
       -0.33196512 -0.0016590713 -0.11179572 -0.12475404
000280 ae a5 2d bc 28 e1 05 3d 81 f0 86 bd c0 e0 25 be
       -0.010598583 0.03268543 -0.06588841 -0.16199017
000290 90 a3 94 bd 2a 15 29 bd cf 93 97 be b7 30 0e be
       -0.072577596 -0.04127995 -0.29604957 -0.1388577
0002a0 91 da fd bc 2c bb b2 be 0d a0 99 bd bc f2 fd 3c
       -0.03098801 -0.34908426 -0.075012304 0.030999534
0002b0 ca fb 82 be 23 a2 c7 bd 52 1e ce bd c5 ed 50 be
       -0.25582725 -0.09747722 -0.10064377 -0.20403202
0002c0 8d 58 af 3d 35 99 bf bc f8 71 80 3d f0 76 96 bd
       0.085618116 -0.023388484 0.06271738 -0.07346904
0002d0 01 30 e8 39 82 e0 e6 bd 19 f5 82 bd de a7 17 bd
       0.00044286254 -0.1127329 -0.06394405 -0.037025325
0002e0 d1 9b af bd a3 c1 eb 3c 97 e5 ce 3c 43 75 84 be
       -0.085746415 0.028778857 0.025255961 -0.25870714
0002f0 e1 b0 4c be 0e 41 64 be b8 8e 0c be 41 61 41 be
       -0.19989349 -0.22290441 -0.13726318 -0.18884756
000300 f4 65 e9 bd 63 b5 78 39 63 a6 04 be 4b 13 62 bd
       -0.11396399 0.00023718695 -0.12954096 -0.05519418
000310 17 db 2c be 10 49 cb 3d f6 5a 10 3d 25 e7 06 be
       -0.16880451 0.09926045 0.035242997 -0.13174112
000320 ee 72 8c be 7d 7d a0 3c e9 c8 01 be 0f f4 d8 3c
       -0.27431434 0.019591087 -0.12674297 0.026483564
000330 d4 d3 29 bd 6d 1c aa 3d 24 d6 3a be 73 91 db 3d
       -0.04146178 0.08306203 -0.1824575 0.107211016
000340 cf 9d 1d 3d 69 9d 83 3d 2a 1c 65 bd 5a e9 c9 3d
       0.038480576 0.06426508 -0.055935062 0.098589614
000350 9d 1f b5 bc 28 05 3c 3d 16 ab 06 bd 59 36 85 3d
       -0.022109801 0.045903355 -0.032878004 0.065045066
000360 ad da 18 bc ee c3 5c bd 6e 8d 90 bb d1 aa 3b bc
       -0.00932948 -0.05389779 -0.004411391 -0.0114543
000370 bd 91 45 3d ee 02 44 3c 5a c4 0e 3d e9 fa 97 3d
       0.04823469 0.011963589 0.034855224 0.07420904
000380 8d 3f 85 bd a7 36 24 3e b5 5f b3 bd e8 94 44 3d
       -0.06506262 0.16036473 -0.08758489 0.04799357
000390 b1 9a ba 3c 13 c9 95 bb b6 f3 c6 3d c8 d8 23 bd
       0.02277884 -0.004571089 0.09714453 -0.04000166
0003a0 5d d9 3e 3d dd ea 03 be ad af 28 be 52 30 57 be
       0.046594013 -0.12882562 -0.16473265 -0.21014526
0003b0 2a b8 06 be 7c 03 8f be 34 f5 56 3c ff e6 ed 3b
       -0.1315619 -0.27932346 0.013119984 0.007260203
0003c0 a4 2e d0 3c 13 2a b7 3d 17 81 e3 bc 00 c6 e5 bd
       0.025412865 0.08943572 -0.027771516 -0.11219406
0003d0 80 2e b2 3d 38 3f ed 3d 01 2d 10 be bd ac 0f bd
       0.087002754 0.11584324 -0.14079668 -0.035076845
0003e0 35 f1 cd bc 9a e4 84 bd 8f 2f 72 3c 45 7d 11 bc
       -0.02513943 -0.06488915 0.014781847 -0.008879964
0003f0 38 07 fd bc 70 fa 12 be 66 44 a1 bd 4c ee e7 bd
       -0.030887231 -0.14353347 -0.07874374 -0.113247484

bias f4 [120]
000000 8f 8b 1d 3d a7 28 12 be 6f 6c 45 3a 46 6a 08 3e
       0.03846317 -0.1427332 0.00075311115 0.1332179
000010 fc 7d ce 3c d3 84 8d bd 8b d7 92 be 24 c8 74 bd
       0.025206558 -0.069101 -0.2868007 -0.05976118
000020 fc c7 62 be 13 e6 38 be 89 12 2f 3d 24 f7 88 be
       -0.221466 -0.18056516 0.042742286 -0.26751053
000030 3e 64 00 be 14 0e 8b 3d ef 63 41 bb 00 be bc 3d
       -0.1253824 0.067897946 -0.0029509028 0.09215927
000040 b4 cf f8 bd fa 0a 0a be e9 30 d9 bd 8f 47 92 bd
       -0.12148991 -0.1348075 -0.10605032 -0.07142555
000050 87 7a a8 3c bf f4 52 be 61 8c 09 be 42 9a d6 bd
       0.020566238 -0.20601176 -0.13432457 -0.10478641
000060 19 cb 10 3e 80 f3 46 3a 63 0c 06 bd 5b ba a7 3d
       0.14139976 0.0007589385 -0.032726657 0.08189841
000070 88 27 e4 bd c4 5f 8c bd 0a 17 98 bd 77 75 ef bd
       -0.111403525 -0.06854203 -0.07426269 -0.116923265
000080 ca e0 ef 3c 63 a3 b4 3d f1 b4 38 bd 26 e4 1c be
       0.029281992 0.08820226 -0.045094434 -0.15321407
000090 4e cb 07 be e4 3b 36 be 15 f3 76 bd f1 b3 ef bd
       -0.13261148 -0.17796284 -0.060290415 -0.11704243
0000a0 ae 59 38 bd 0f ac e1 bd c5 39 83 bc 88 4f 99 bd
       -0.0450074 -0.11019146 -0.016018758 -0.074858725
0000b0 aa 7b fd ba 91 be b6 3d 9a 48 71 3d d6 ef b3 3d
       -0.0019339223 0.089230664 0.05890713 0.087859794
0000c0 b6 31 89 3c d0 f8 0a bc e3 28 78 bd fb 0c fc bd
       0.016747337 -0.008482173 -0.060585868 -0.12307163
0000d0 c1 4f 16 bd e3 48 37 bd b3 db ee 3c 04 8e 39 bd
       -0.036697153 -0.044747245 0.029157495 -0.045301452
0000e0 07 de 6b be 01 7d b0 bc d2 20 dc bd 5d d7 02 3d
       -0.23033915 -0.021543982 -0.107484475 0.031943668
0000f0 9a 0f 02 be 7b 0f 1a be 1d 2a 2c be a6 9b 5a bd
       -0.12701264 -0.15044968 -0.1681294 -0.053371094
000100 73 d6 01 3d 16 44 67 3d 2c 5c bb bd 37 3c 2a be
       0.031698655 0.056461416 -0.0914844 -0.16624533
000110 36 86 f6 bc bd c1 1e be 59 79 bc 3c 3c e3 db bd
       -0.030093294 -0.15503593 0.023007082 -0.10736701
000120 55 3d 36 be a2 a9 0c bd 18 43 b1 bd 2a 93 6f be
       -0.17796834 -0.034341462 -0.08655375 -0.23395982
000130 9c 08 db 3a 80 26 8d be 69 7f 93 3c 8c 2d 24 bd
       0.001671094 -0.27568436 0.01800509 -0.0400825
000140 f6 04 07 be 57 12 b2 bc 66 fb 5d bd 50 9b 2f be
       -0.13185486 -0.02173726 -0.05419483 -0.17149091
000150 b8 05 12 be 55 a7 20 be 41 b6 14 3d 50 d2 0b be
       -0.14259994 -0.15688832 0.036306623 -0.13654447
000160 93 80 6a bc 62 c3 08 bd 38 b6 7d bb bb 74 da bc
       -0.014312881 -0.033389457 -0.0038713347 -0.02666699
000170 13 d2 d9 3c 5f ae 4d 3c ca 2b 89 3c 31 1e 40 3d
       0.026589429 0.01255378 0.016744513 0.046903793
000180 cb 7c b2 bd b3 c1 31 be 7c cd 4c 3c db 9a 64 bd
       -0.087152086 -0.17359047 0.012500163 -0.055811744
000190 09 48 3e bd ad d9 1c bd 25 d3 bf 3d 3d 3b 06 3d
       -0.046455417 -0.03829353 0.093664445 0.032771338
0001a0 4c ff 05 be 14 3e 32 bc 7c ed 90 bd a2 43 a3 3c
       -0.1308567 -0.010879058 -0.070765465 0.01992971
0001b0 ad 34 39 bd 19 99 3e bd 79 ba 47 be df 09 a4 bd
       -0.04521625 -0.046532724 -0.19504727 -0.08009695
0001c0 30 74 c1 3c 35 c3 6f bc c1 18 e2 bd 2a cc 03 be
       0.023614973 -0.014633943 -0.11039878 -0.12870851
0001d0 58 0d fb 3c d8 c0 7d be 08 96 80 be b9 89 1d bd
       0.030646011 -0.24780595 -0.25114465 -0.03846142

weight f4 [2, 120]
000000 e5 55 a5 bb 68 30 8a 3c c8 ce b4 3d 24 88 2a be
       -0.00504564 0.016868785 0.08828503 -0.16653496
000010 58 04 4c 3d 36 58 7a bc 7c 70 17 bd b3 ea 2d bd
       0.04980883 -0.01527982 -0.036972508 -0.042460155
000020 7f 5e 8e bd 7c af 3a be 82 5f c2 ba 66 68 04 3e
       -0.069516174 -0.18231004 -0.0014829489 0.1293045
000030 b9 8e 79 3d e4 ac d1 bc 8a 20 e9 bc 25 14 49 3d
       0.060927127 -0.025595136 -0.028457899 0.049091477
000040 36 7c 33 3d 89 43 90 3d c0 71 0b be b4 60 1c bd
       0.04381963 0.07044131 -0.13617611 -0.03817816
000050 e8 06 d2 bd d5 00 46 bd c0 25 90 3a 90 e7 9f bd
       -0.102552235 -0.048340637 0.0010997579 -0.07807839
000060 47 15 1d bd f1 1d 58 3d d8 85 fa 3d 79 17 bd bd
       -0.03835037 0.05276293 0.1223256 -0.09232993
000070 d7 e5 b8 3d 1a 3e c0 3c 32 41 87 3d a1 74 17 bc
       0.090282135 0.023467112 0.06604232 -0.009244115
000080 ca f6 54 bd e8 72 df bd 86 55 b7 3c c4 60 ff bd
       -0.05199317 -0.109105885 0.022379648 -0.124696285
000090 85 e4 b8 3d 77 64 b0 3d 50 70 b1 bc 7a 0d bd 3d
       0.09027962 0.08612912 -0.02166 0.09231086
0000a0 a8 87 91 3d 1c d4 1c 3d 89 69 c4 3c a6 d4 71 3d
       0.071059525 0.03828822 0.023976104 0.059040688
0000b0 32 34 88 bd 9e 2a c4 bd c0 f6 ca 3c 91 0b 97 bd
       -0.066505805 -0.09578441 0.024775863 -0.07375253
0000c0 95 b5 a5 bd 66 8b 14 be ea 97 ed b8 16 bd 40 3d
       -0.08091275 -0.14506301 -0.00011329337 0.047055326
0000d0 27 dd e5 3d 74 37 8f 3d 5e 27 82 bc ba a8 77 3d
       0.11223822 0.06992999 -0.015887912 0.060463645
0000e0 8c ed c8 3d 3f a3 10 bd 9a d9 5c bd 6f 60 2e bc
       0.098109335 -0.035311934 -0.05391846 -0.010643109
0000f0 53 11 d4 bd 15 5e 2e bd f4 58 08 3d c5 0f 8d bd
       -0.10354867 -0.042570192 0.033287957 -0.068877734
000100 19 df b2 bd 35 62 5d bd 8d fa 03 bb 13 00 59 bd
       -0.08733959 -0.054048736 -0.0020138354 -0.052978586
000110 06 91 17 3d cd 47 d0 bc 65 e7 27 3d 02 d6 2c 3d
       0.03700354 -0.025424862 0.04099216 0.04219628
000120 3e c8 ba 3d 44 32 89 3d d4 ef 31 3d 66 2e 2f 3b
       0.091202244 0.066990405 0.04344161 0.0026730536
000130 99 17 a5 bd 5e 55 74 bc d9 20 34 3d d7 ba b3 3d
       -0.080611415 -0.014912931 0.04397664 0.08775871
000140 b0 32 57 3e 8f 88 4c bc 43 2b 6c bd 2b c3 88 bd
       0.2101543 -0.01248373 -0.057658445 -0.0667785
000150 88 06 b6 3d 0a 47 42 bc be 0c 1b be 7e 79 72 3d
       0.088879645 -0.011857757 -0.1514158 0.059197895
000160 29 93 9d bd 07 ea 95 3c 1f e1 91 bd a3 a1 1d 3d
       -0.07694084 0.01830007 -0.071230166 0.038484227
000170 6f 4d 2c bd 96 0d 24 3d 35 a4 ac bd df 5b 44 bd
       -0.042066034 0.04005202 -0.084297575 -0.047939178
000180 e1 e2 cd bc 8c aa 5f 3b 2b c2 05 bb 67 05 c2 3d
       -0.025132598 0.0034128753 -0.0020409923 0.09473687
000190 1e d4 d7 3a 47 8b 0d bd 54 50 51 bd 10 c5 25 3d
       0.0016466414 -0.034556653 -0.051101997 0.040471137
0001a0 a2 16 76 3c a2 7a d8 3d f2 4a 1d 3d 80 e7 04 bd
       0.0150200445 0.10570265 0.03840155 -0.032447338
0001b0 9a 76 49 3d 33 6d dd bc 3b b5 dd bb fd 2e 9d 3d
       0.049185373 -0.02702961 -0.006765989 0.07674978
0001c0 e7 0b 70 bd 14 98 d7 3c 98 cb 90 ba ba 4a 0a be
       -0.0586051 0.026317634 -0.0011047004 -0.13505068
0001d0 36 f8 b5 bd b1 7a 01 bc be c9 36 3d e0 68 5a bd
       -0.08885233 -0.007902787 0.04462599 -0.053322673
0001e0 08 87 10 3c 44 0b e4 3d da da 74 bd 5f e9 84 3d
       0.008821256 0.11134961 -0.059779026 0.064898245
0001f0 7d fe b8 3d 94 ac b6 bc 47 0f 25 bd 86 e3 6f 3d
       0.09032915 -0.022299089 -0.040297773 0.058566593
000200 22 27 87 bd 73 35 94 3d 8f 0c 34 bc a1 dc de bc
       -0.06599261 0.07236757 -0.010989322 -0.027204813
000210 bc 35 01 be 2f 70 a1 3d e8 64 95 bc 67 a6 ad 3d
       -0.12618154 0.078827254 -0.018236592 0.08479004
000220 3e 91 22 3c af 98 b5 3c 69 5d 60 3d 77 20 79 bd
       0.009922324 0.022167532 0.054776583 -0.060821977
000230 c9 88 ae 3b 5c b4 46 bb 61 eb 5a 3d 56 8d 2a bd
       0.0053263647 -0.0030319905 0.05344713 -0.041638695
000240 23 11 00 3e cd 09 31 3d ba c9 04 be dd bd ba 3d
       0.12506537 0.043222237 -0.12967578 0.09118245
000250 5d 10 ed bd 9d bc 0b bd 29 b8 b7 3c 20 f0 25 3c
       -0.11575387 -0.034115423 0.022426682 0.010128051
000260 f5 63 21 3e 00 08 42 3c 84 66 13 3d 23 4c 26 3d
       0.15760787 0.011842728 0.03598644 0.040599953
000270 30 9d 8f bd 73 73 02 bd 14 6b a2 bd cc d1 f6 bd
       -0.07012403 -0.031848382 -0.0793058 -0.12051734
000280 0d 3d 9d 3c b0 02 2f bd 0f cf ab 3c ec 55 71 3c
       0.01919415 -0.042727172 0.020972757 0.014729958
000290 fa 43 c5 bb ce 9e 7f 3d f3 a5 bc 3a dd d1 12 3e
       -0.0060200663 0.062407307 0.0014392718 0.14337869
0002a0 b1 a8 91 3b 74 3a 2f 3e ed 9c 54 bd df 8d b3 bd
       0.0044451584 0.17112142 -0.05190747 -0.08767294
0002b0 ca e9 c0 bd 1a c1 c2 bd f4 a5 90 3d ab 82 f8 3c
       -0.09419592 -0.095094875 0.07062903 0.030335745
0002c0 02 af 86 bd 02 fd 5f bd 03 39 8e bd a5 37 9f 3c
       -0.06576349 -0.054684646 -0.06944468 0.019435713
0002d0 b5 e0 b2 3d f0 31 9d 3b 3b 0d bd 3c 79 2c 4c 3e
       0.08734266 0.004797213 0.023077598 0.1993884
0002e0 9e 40 87 3d 5d c4 8a bd 8d 8b 2a 3d 18 ed c3 3d
       0.066041216 -0.067757346 0.041636992 0.095667064
0002f0 0b 83 8c 3d e4 ba 1d 3d 2a 6c af 3c f4 c2 06 3b
       0.06860932 0.03850831 0.021413881 0.0020562978
000300 22 4d f7 bd 9b 6f 76 3d 97 11 46 3d eb 1c 09 3d
       -0.12075259 0.06016503 0.04835662 0.033474844
000310 65 65 5d bc 79 1a 71 bd 8f 32 d5 bd 23 1f 1e 3c
       -0.013512944 -0.058863137 -0.10410034 0.009650978
000320 84 de 1d be 1c a9 03 3c bc 64 bf 3d a7 d3 2b 3d
       -0.15416914 0.008035924 0.093453854 0.041949894
000330 16 59 03 be 63 db c3 3c d7 2a 25 3e 9f ca f8 bc
       -0.12826952 0.023908323 0.16129623 -0.030370055
000340 92 ed ca 3b c5 2a 8e bd 40 ba 4d bd e9 1a 2c 3d
       0.0061928714 -0.069417514 -0.05022645 0.04201785
000350 45 df 56 bd d3 f5 24 bd 99 ae 42 bd 9b cf 83 3d
       -0.05245902 -0.0402735 -0.04752979 0.06436082
000360 d4 26 37 3c 4d cd 9a bd dc 3d f1 3c 88 fd 93 bd
       0.011178691 -0.07558689 0.029448442 -0.072260916
000370 43 b9 09 3c f1 af 5b bb 01 3a a2 3c 1b c7 d7 3c
       0.008405986 -0.0033521617 0.019803049 0.026340058
000380 37 b2 bd 3b 88 7b ab bd 05 65 5e 3d 6c 2f 8a bc
       0.005789067 -0.08373171 0.05429556 -0.016868316
000390 b7 77 a7 3c 9c e4 a7 3d 6b 6c f9 bc fc 58 07 bc
       0.020442827 0.08197901 -0.030447206 -0.008260962
0003a0 dd 8d 63 bd 4e 42 78 3d 85 4b a0 bd 5a b3 f4 bb
       -0.055555213 0.060610108 -0.07826904 -0.0074676694
0003b0 d7 dd f9 3d 0b 19 07 bd 7f f4 3d bd 47 df eb 3d
       0.12200516 -0.032982867 -0.046375748 0.11517196

bias f4 [2]
000000 3c b8 cd bc 38 cf 14 3c
       -0.025112264 0.009082608
